weights.npy (npy, 8928 bytes, 1 tensors)

array f8 [100, 11]
00000000: 057a 9654 7b9c f13f 6900 becb 9ea9 f7bf
00000010: 7780 bd7b 01f7 e1bf 6659 f358 461a e8bf
00000020: c90d 6d32 222b e63f b2de e8e5 24b8 ca3f
00000030: eaf9 a1bb b830 dbbf 0673 3cd0 28d0 f13f
00000040: fcb7 7d2e fd80 adbf 9212 fd9d bf63 ea3f
00000050: 36d1 d713 813c d5bf 8a7c f397 63f5 f13f
00000060: 36bf adb4 c26c f0bf cfc7 9b58 6f9c e8bf
00000070: ed15 220c 64ea ecbf a5c1 26ce f15a e93f
00000080: 26f8 ca6c ae9a b5bf e642 02bd 3d7b 993f
00000090: 673b ed5a d6c5 e83f 3a17 5ca0 00bc bebf
000000a0: 3987 b349 adee ee3f e39b 5bca 7342 e5bf
000000b0: 0e7c 88bc bd27 eb3f 5e9f 241a 39bb dbbf
000000c0: 875a 4f2f e420 f3bf 5ac9 9e3a 915d eabf
000000d0: fe2b 5ddd 9b60 f03f c082 2ea4 71e5 dcbf
000000e0: d9af 9248 73cb a8bf 7c3c 0d88 7a39 de3f
000000f0: cd34 266d 8fba b33f 693d 0456 979b f23f
00000100: c889 68f1 2bc6 e2bf c8db 29e0 bacb f23f
00000110: 9f28 a45a 7e9a edbf 788e 369a 1d77 f5bf
00000120: 7952 b611 d191 d5bf 8f91 bf23 9b77 e83f
00000130: c460 941b 0d46 e3bf dc08 c4d8 a551 cbbf
00000140: dc7b d4d3 0399 d63f 49f8 8da9 e6b4 b03f
00000150: 641e 75a5 9e09 f23f fc34 965c 315b c9bf
00000160: ea3b c111 e23a ed3f 0a31 d4b6 6de5 d0bf
00000170: 088e c259 0433 f6bf 38ec d989 1908 e9bf
00000180: 349a fa22 b7a2 e33f 5a14 bb1e 3db6 bbbf
00000190: 8de0 ec24 e20f d6bf 5f8f ffc4 ad1f c83f
000001a0: 19f0 482d 9919 b03f c0f7 8b14 66c7 ee3f
000001b0: 9aba 47eb e2f5 c3bf 5417 5359 4215 ef3f
000001c0: 3473 0cb8 bf23 c0bf 2984 8bb1 36d0 f8bf
000001d0: 95cb 1d1a 264e e2bf a2a8 ade5 5be1 e93f
000001e0: 1a2b 79df 2cb4 963f cfc4 fff5 6647 dfbf
000001f0: a578 771e 2784 babf 7903 bbd0 42b4 d8bf
00000200: 3170 89a6 d431 ed3f 43d0 4d8a 337c b33f
00000210: ba68 3e24 0011 f33f daf7 5f56 4cfc 79bf
00000220: 8c21 8314 1946 fcbf 1fd7 78be fd4c e3bf
00000230: 1355 552f c936 e83f 5710 a3fb 4f5c cfbf
00000240: ae08 a4e9 b7ce c23f d7fe 261d 0b33 d7bf
00000250: 60c3 5ca1 06eb d5bf aacc f091 d782 e03f
00000260: af23 83e4 70ce b8bf 3ba5 4709 0ba3 f23f
00000270: 99c2 c591 1534 d6bf bb67 6e3c 7153 febf
00000280: 13a8 0458 ae85 d1bf a695 9050 8fdb c83f
00000290: d1bf 23e6 9264 bebf dd6f e39e 4cea d23f
000002a0: b241 c8d3 0e36 d7bf 747e 48bc f481 803f
000002b0: 0cee a207 c3cb e43f 2bdd eddd 96f1 c3bf
000002c0: ec2e 9e04 a95f f43f 272b 4ddd 8fe3 acbf
000002d0: ba0b 19f7 37ae fbbf ee9c c02c b87a e3bf
000002e0: 2994 c92b 3d6e df3f dc88 7c1e 3730 b53f
000002f0: 8fd4 58ce 5d80 ce3f 25ff 4c3a f480 e3bf
00000300: 82df 12f1 e2a4 e2bf 3a99 de40 d8bd d23f
00000310: 103d 27b0 2526 be3f e143 63c9 e0ee f23f
00000320: d30a 61b4 dd52 b63f e601 d83a a00a fdbf
00000330: 0b42 9e65 3743 dabf 7d4d 1aae f43b e03f
00000340: 8345 14f4 2708 c2bf 1b37 676e 7ddb d13f
00000350: ff16 3d55 a702 f1bf c9bd a848 60a1 e0bf
00000360: 1a5e fbd3 730c d93f 6008 68b8 8315 cf3f
00000370: 0e4e 6e18 5c48 f13f 3018 41b3 4def eabf
00000380: 0ebe 90b6 f3da e6bf c431 fb9d 38c6 f6bf
00000390: abb9 32be 186b dd3f 9e86 cde3 f6ba e13f
000003a0: bc2b faf4 8f02 8c3f eef6 763a 810e ed3f
000003b0: f99e 8713 86ba d03f 9310 7395 e175 79bf
000003c0: 3693 9fa1 491e e0bf c90b a9df 0b41 f23f
000003d0: 380f 161b ef7e e8bf d871 5a7a b9f9 e7bf
000003e0: 5e60 8fd0 e2a0 f2bf dfc0 5e0c de68 e43f
000003f0: 5f2d b301 7820 d43f b34e d27a d1f4 d5bf
00000400: 89d0 e6f2 060e e43f 2cbd c9a6 e9f0 c63f
00000410: a811 5960 5a1c da3f e1e7 4e14 fa81 dbbf
00000420: 3f51 6553 7a68 ee3f 99b4 c321 8069 e1bf
00000430: 4a7f 9d74 d92f f0bf 3e0d c5d5 a511 f1bf
00000440: 3105 8ae2 841d e23f 3638 636d 65f6 dd3f
00000450: b1d1 fac0 c3f5 d5bf cee3 f6b6 4267 e23f
00000460: cd7e 87d4 f4c9 ca3f f974 9f10 8776 dc3f
00000470: 5fbf 7449 1a3b d7bf ee9a 3ab7 cb06 ed3f
00000480: fd3c 89c9 8cc6 e0bf 1ad4 fbbc 9b31 f4bf
00000490: 2d37 3fe4 859b e9bf 5990 19da e5bc e03f
000004a0: 0a4e 7f5f 0d95 b33f b5d7 9d2f f8a7 923f
000004b0: ced7 6521 3fbe d73f e23b f1aa a62f d53f
000004c0: a3b5 2e56 bb7b e53f 12db 5549 2380 e0bf
000004d0: cc8f b0b6 c214 eb3f 6be0 e686 1b12 d6bf
000004e0: 6418 64ea 2f09 f4bf 55f7 ab76 c00b eabf
000004f0: c18a 78c4 b3cc cd3f 0712 9f60 cfe3 cb3f
00000500: cb0a 03a6 b2e3 c0bf f1e3 0126 9e73 b33f
00000510: 75ce d333 b665 d83f c965 58a8 1a5d e93f
00000520: ace1 a1ef 3a68 d8bf dbcd 087b e8fa eb3f
00000530: 5e56 2053 415e d0bf 24c3 f4a0 b7a4 f9bf
00000540: 95b2 aaf9 bcbd e3bf 1d75 2cf8 3b75 cf3f
00000550: 72e6 4fb6 1f84 dc3f f1c2 c487 0315 d13f
00000560: 9fdf d287 6edf bebf 5a9c 90e8 6cb0 923f
00000570: dc1b 6767 612f de3f 28ce 2c91 4829 d8bf
00000580: 7df8 251a 37b4 f13f 6b18 f7d2 f29c d0bf
00000590: 36c5 1352 daba ffbf 9714 6643 6b7c e1bf
000005a0: e44d 02ad 9033 afbf 310d b64d 51eb db3f
000005b0: 7a7e 795f e9fa d63f 251f b33c 93aa d5bf
000005c0: b9c1 cbdb 0b0c cb3f 5ef2 b5c1 96ea c0bf
000005d0: ac45 23a4 10bb 953f e7fd f38f 461f f03f
000005e0: 94c1 b760 98c8 d2bf a09f 26c6 3c24 fabf
000005f0: 720e 7452 c32d e1bf e846 3aef 196a a0bf
00000600: 075b 5881 32fe e83f cdb5 41ce 1a74 cdbf
00000610: cbdd 7564 e3a9 dcbf 208d 154e 707e a9bf
00000620: cfef ea9d eaa2 be3f ef81 c7f6 bb7f d33f
00000630: 91af 4417 f450 f23f 2f2c 90e0 8b43 d5bf
00000640: 47df 2d66 121e fabf 8e95 5907 29bb d8bf
00000650: cdc0 7a30 277a cebf 13cc f87a 5024 e53f
00000660: 009a b378 c000 86bf 38c1 c708 e82d e5bf
00000670: dd51 f111 2afa 8dbf fdcb d002 e797 ca3f
00000680: 409a c49b 91b4 bd3f 116d e91d ef87 f23f
00000690: 267d 641e 38b4 d7bf e9d7 66ad 04cf fdbf
000006a0: c442 f4c4 05a8 d1bf 6bfb 8446 5ac0 d7bf
000006b0: 7c84 b8ef b875 ee3f bf5c 605d c688 c13f
000006c0: 27e4 ff19 8abe e9bf 8768 c869 7c20 d3bf
000006d0: 6ed0 f793 a0a9 bbbf ef85 9e72 45d8 dc3f
000006e0: fa41 9503 0afe e43f a67b 5154 c374 efbf
000006f0: 6610 8b47 1c7d e7bf 8294 a82b af7f f1bf
00000700: 8c5f 8774 27d5 e33f d2b4 65d9 079c e43f
00000710: 50c8 7c90 627f b7bf c494 d60c eef5 ea3f
00000720: ecb1 4693 0eea d93f 9b93 5da2 8155 c13f
00000730: 44e6 c9fb a908 e2bf 374e 7746 8a81 ee3f
00000740: e8ff 3f64 164e ecbf 4455 c3ea bc84 f0bf
00000750: b548 4dd9 02b0 f0bf 80d8 62da 7c73 e13f
00000760: 0c4a b142 5f19 d83f c122 b167 219f c93f
00000770: 3090 704e da9a e83f c977 1be9 9052 e13f
00000780: a0ea ff59 2a2f a9bf 8bb2 9f62 81eb e5bf
00000790: 0577 f852 c59a e83f 44b6 632a b4f7 e5bf
000007a0: 7f90 cdd0 f90c f7bf 5112 6b71 57c8 e9bf
000007b0: 08dc 379c 6e64 df3f 5217 36da 18e7 cb3f
000007c0: 8994 079f bd45 d3bf ffad c262 e0e1 e13f
000007d0: 4ead 1cfe 6cf7 ea3f 9e4d 3af6 18ff a23f
000007e0: 2235 a527 3b62 c7bf 6acb a72e 66fc ee3f
000007f0: a68b 793a 9c30 dfbf ffe0 55e7 1d92 f7bf
1.1007035545550263 -1.47891120516581 -0.5614020745088187 -0.7532073724094459 0.6927653298266075 0.2087446329694465 -0.4248487312651422 1.1133201727126916
-0.05762473289983913 0.8246763311113503 -0.33181788385197153 1.122409432944354 -1.026552873397987 -0.769096062720786 -0.9036121594405678 0.7923516298670178
-0.08439150005412496 0.024884190236266777 0.7741500640785092 -0.12005618968040901 0.9666353644827047 -0.6643618538190562 0.8486012155807445 -0.4333021884253777
-1.1955301139875318 -0.8239217896391822 1.0235861441640277 -0.4515041449867958 -0.04842720280552699 0.4722582176809238 0.07706543364311642 1.1629861221334414
-0.5866908755308993 1.174738765372 -0.9251090784394086 -1.3415809654187836 -0.33702494363505014 0.7646003435334466 -0.6023011721290676 -0.2134291943003238
0.3530892914440622 0.06526033057704796 1.127348562544193 -0.1980954839786263 0.9134378763936841 -0.26400320867902904 -1.3874553209542473 -0.7822387401969371
0.6136127169782584 -0.10824949264777342 -0.3447194443319937 0.1884667598634406 0.06289059978092872 0.9618406678489393 -0.15594135750094013 0.9713451141949272
-0.1260909699130025 -1.5508334098196974 -0.5720396528325745 0.8087596403031692 0.02217168916676391 -0.48873304389333055 -0.10357899183097403 -0.3860022581466676
0.9123328449891287 0.07611391188203336 1.1916505256436225 -0.006344125931716927 -1.767113762021924 -0.6031483383328328 0.7566877293089952 -0.245004651898969
0.14693354519119367 -0.36249044272333947 -0.3424698425106296 0.515971932449607 -0.09690003947174718 1.1648054468626714 -0.3469289706763817 -1.8953716621967789
-0.27378424258734063 0.19420043405368154 -0.11872213476794903 0.29555049435088937 -0.3626744335352 0.008060371395060197 0.6498732709073365 -0.1558102210653741
1.2733545475375037 -0.056423660053573514 -1.7300338413485705 -0.60873039951994 0.4911034515010351 0.08276695722864552 0.2382924325517348 -0.6094914568602446
-0.5826277454825546 0.2928372033587895 0.1177695803701122 1.183319842024723 0.08720193532739566 -1.815094213350784 -0.4103525631299198 0.5073188209957348
-0.14087390344552028 0.2790216043621158 -1.0631478623994892 -0.5196992320178931 0.39138503743512987 0.24284407142846742 1.080165954049224 -0.841711855035788
-0.7142275396090001 -1.4233938380376552 0.45966166090047506 0.5540728043817642 0.013676762260066748 0.908020605267408 0.2613845053406148 -0.006215935885112728
-0.5036972195344791 1.1408804642421606 -0.7654948739077332 -0.7492339505875476 -1.1642788073422916 0.6378011933902846 0.31448173681265773 -0.34306752199448026
0.6267122978374725 0.17922707218120004 0.40798053177811733 -0.4298081587145344 0.950253641970029 -0.5441284808599846 -1.011681991127221 -1.0668085432415206
0.5661034035294162 0.4681638305891086 -0.3431252846305837 0.5751050542377187 0.20928821923643284 0.4447343504269408 -0.3629823415130797 0.9070795611085865
-0.524237054467363 -1.2621114141632064 -0.8002347429225886 0.5230588207018726 0.0764931066653888 0.018218877702984766 0.370986731162131 0.3310333890303224
0.6713539775134233 -0.5156418258983158 0.8462842529447641 -0.34485519575128504 -1.252242961492379 -0.813934547215221 0.23280951588920654 0.217889711550143
-0.1319487867932224 0.07598293712534578 0.38120799123064525 0.7926152503961755 -0.3813617077026048 0.8743784335151149 -0.25575287931255797 -1.6027141845081099
-0.6169113994888727 0.24576520555357542 0.4455642013923359 0.266907579981349 -0.12059679809578804 0.018251134581216945 0.47164187524725576 -0.37751974274871936
1.106497861997496 -0.259579378147811 -1.9831183630124776 -0.5464378658658856 -0.06094028579641611 0.4362376459977951 0.35906442950906803 -0.3385360806246232
0.2113051245901383 -0.13215908487827027 0.021221408861327326 1.0076356528442092 -0.29349336094949163 -1.6338470211285099 -0.5368363008896735 -0.03205948872813541
0.7810299421570058 -0.2301057345497796 -0.4478691559847589 -0.04979277566124041 0.11967340808308723 0.3046712789491996 1.14476403321439 -0.33224770479199867
-1.6323417655348338 -0.3864233562256566 -0.2381028162685709 0.6606829072756021 -0.010743621524352598 -0.6618538066377715 -0.014637306854788196 0.20776069295388302
0.11603651097230117 1.1581870239668357 -0.3703747078706833 -1.8630415700440557 -0.27588028177073576 -0.37111527334848543 0.9518704111143417 0.13698653754611276
-0.8045092113308144 -0.2988577874217601 -0.10805705654621686 0.4507001513794355 0.6560106344205103 -0.983003296550909 -0.7340222737625595 -1.0936729150210174
0.6197697902634771 0.6440467115441157 -0.09178749110722717 0.8425207377191772 0.40491070158421283 0.1354219477463204 -0.5635576169726808 0.9533130050935544
-0.884532161522654 -1.0324067278318845 -1.042971466861258 0.5453476205209569 0.3765485907835291 0.20016877711375083 0.7689029247308152 0.5413288643719564
-0.04918796871785003 -0.6849982191320846 0.7688929195898885 -0.6864872768325729 -1.4406679302565235 -0.8057057585907136 0.4905048871582385 0.21799002318237598
-0.3011316350005662 0.5588228157916432 0.8427033389211063 0.037102489525888446 -0.18268527446563448 0.9683104430426799 -0.48734193525722913 -1.473173049596937
